checkpoint.pth (torch_old, 28391 bytes, 6 tensors)

fc1.weight f4 [64, 37]
000000 2a 64 85 be b4 c9 6b bc 28 79 f0 be dd 31 72 be
       -0.26052982 -0.0143913515 -0.46967435 -0.23651834
000010 70 e2 e0 3e c3 d2 3d bf 8a 38 0a bc 58 bb 25 3d
       0.43922758 -0.7414972 -0.0084363315 0.040461868
000020 17 7a 0c bf c8 b5 68 bf bc 26 27 bf 1b 16 4e bd
       -0.54873794 -0.90902376 -0.6529348 -0.05031405
000030 d0 44 c0 be 9b 5a 37 bf 6b 77 d0 be 53 0d e0 be
       -0.375525 -0.7162263 -0.4071611 -0.43760166
000040 4a fa be bd 73 ee 9f be 60 f9 28 3e 7d 04 49 3e
       -0.093250826 -0.3123661 0.16501379 0.19630618
000050 33 2d 10 3c 0e 8c 10 be e1 40 c9 be 63 e4 2c bf
       0.008799839 -0.14115927 -0.3930731 -0.6753599
000060 9f e4 fd be a7 16 29 bf 3a 50 94 3e ef e5 32 bf
       -0.49588487 -0.6605019 0.28967458 -0.698821
000070 dc 33 85 be 73 be b9 be 80 7a 7a bb bd bb 4f be
       -0.26016128 -0.36278114 -0.0038219988 -0.2028646
000080 7e 1b 91 bd 06 36 48 bf e7 f9 92 bf 14 31 30 3d
       -0.07085322 -0.78207433 -1.1482514 0.043015555
000090 2a 6d f0 3d 75 77 9b 3e 97 8f 04 3d 8e 64 d4 3d
       0.117395714 0.30364576 0.0323635 0.10370742
0000a0 ee 7f 88 bc 4e b4 fc bd 14 a3 4b 3e 39 4f 91 bd
       -0.016662564 -0.12339078 0.19886428 -0.07095189
0000b0 a1 5c 6f be e4 5a e7 be 25 f0 05 bf 2a ce db 3d
       -0.23375179 -0.45186532 -0.52319556 0.10732682
0000c0 a1 cf c9 3c d1 9e 4d 3d fa 6e 30 3d 63 3e 7d 3d
       0.024635138 0.050200287 0.043074585 0.061827075
0000d0 db ea 52 3e 06 e1 d8 bd 3b e8 99 3d cf 04 ae 3d
       0.20597403 -0.10589795 0.075149976 0.08497011
0000e0 6f 74 8e 3b 99 6f 4d 3d 65 e5 07 be 45 56 e2 bd
       0.004347376 0.050155256 -0.13271101 -0.11051611
0000f0 92 7b 56 be 63 7f ac bd f4 85 52 bc 4a eb 1a bd
       -0.20945576 -0.084227346 -0.01284932 -0.037822045
000100 a9 0e 0c 3e b7 f4 0c bc 69 11 77 3e e3 0d 33 3e
       0.13677467 -0.008603266 0.24127735 0.17485766
000110 cf 4e 38 3e 2d 74 0c be 7d e5 5b bb 61 1b 88 bd
       0.17998813 -0.13716193 -0.0033553534 -0.06645847
000120 b8 5b 43 be 77 b2 b2 3c be 49 41 bf 65 ee 06 3f
       -0.19077957 0.021813614 -0.75503147 0.5270751
000130 82 a8 36 3e a8 aa 77 bd fa f9 15 bf 7a 88 8f bf
       0.17837718 -0.060465485 -0.5858456 -1.1213524
000140 cd 70 aa 3e 15 30 8d be d6 29 12 bf 2f 94 44 bf
       0.33289185 -0.27575746 -0.57095087 -0.7678861
000150 13 70 c0 be 5a 4e 74 bd 46 20 30 be 05 7d 50 bd
       -0.37585506 -0.059645034 -0.17199811 -0.050900478
000160 48 0e d9 bd d0 8c 27 bf 5c 7f aa 3e df 14 b7 bd
       -0.10598427 -0.6544924 0.33300292 -0.08939528
000170 a1 a4 e3 be 7e 9a 5b bf bb 24 27 bf 1d d5 26 3d
       -0.4446154 -0.8578261 -0.6529042 0.040730584
000180 60 1b 8e 3d 5a e6 0a bf 66 17 4a be 9e ae 5c bf
       0.06938815 -0.5425774 -0.19735488 -0.86203945
000190 ec 52 89 3e b1 c4 ef be 2e 5d 70 be cb 0d d5 be
       0.26821077 -0.4682975 -0.23473045 -0.41612086
0001a0 8d 11 4a bf 24 0e 75 be 4b a5 40 be de d1 0e bf
       -0.7893303 -0.23931175 -0.18813054 -0.5578898
0001b0 c5 1e 41 bf 46 cb ea 3d 4a 0c fe bb bf 48 c4 3e
       -0.75437576 0.114645526 -0.00775293 0.3833675
0001c0 49 e1 c1 3e 15 cd 00 3b 25 7c 13 3e 98 e7 be be
       0.3786719 0.0019653488 0.14402826 -0.37286067
0001d0 e3 a5 c6 bc ae 33 80 be bf a2 30 bf 5f 4c 58 bf
       -0.024249023 -0.25039428 -0.6899833 -0.84491533
0001e0 1b 18 4b c0 6e c1 1e 3e 25 24 82 be 07 d5 d0 bd
       -3.1733463 0.15503475 -0.254182 -0.10196882
0001f0 80 18 36 bf 4f 32 ca bf ad e0 4c 3e ca 6b 3c bd
       -0.71131134 -1.5796603 0.20007582 -0.046001233
000200 72 07 7c 3c 90 ec 1e bf 75 b3 7c bf af 8a 23 3e
       0.0153826345 -0.62079716 -0.9871133 0.15970872
000210 a7 38 d4 3e 7b d8 54 3e e7 3b 45 3e c6 73 c1 bd
       0.41449472 0.20785706 0.19261132 -0.0944591
000220 da b3 10 3e a6 ce 6e be 59 10 3b 3d 47 2f 08 3d
       0.14131108 -0.23321018 0.045669887 0.033248212
000230 b0 ea 82 bc 20 0f 7e 3e 6b 15 99 3d 65 74 b4 3e
       -0.015981048 0.24810457 0.07474788 0.35245052
000240 b3 14 1a bd fe 52 83 be cc 15 6c 3b e7 f9 8c 3c
       -0.037617397 -0.25649256 0.0036023734 0.017209006
000250 c8 7f 99 bd 95 3e e9 bd 68 a2 8a bd b8 96 b3 bd
       -0.074950755 -0.1138889 -0.06769258 -0.08768982
000260 d3 d9 ea bd 64 3e 99 3e 5b 5b 10 bf e7 25 ae be
       -0.11467328 0.29930413 -0.563894 -0.34013292
000270 97 cb 92 bf d6 52 7f c0 ce a8 c5 bc e6 86 0c 3d
       -1.1468381 -3.989431 -0.024128344 0.034308337
000280 da f2 00 3e 81 8f 39 bd fd a4 15 bd 0f b1 91 bc
       0.1259264 -0.04530287 -0.0365343 -0.017784623
000290 4d b2 94 3d 52 d7 ad 3c dc ed d3 bc a2 27 48 3d
       0.07260571 0.021220837 -0.025870256 0.04886592
0002a0 7b 29 1b bd 87 d2 1c 3d dc 70 82 3d 18 40 6f 3e
       -0.037881356 0.038286712 0.063691825 0.23364294
0002b0 1a c9 fe 3d fb 96 6d 3e cd 69 2c 3d ae 1c 0c 3e
       0.12440701 0.23202126 0.042093087 0.13682815
0002c0 5a da a6 3d cb ab b8 3d 10 c7 56 3e 07 29 c0 3d
       0.08147116 0.09017142 0.20974374 0.09382825
0002d0 00 ae 9f 3d a7 82 4f 3e ab 9f b7 3e 62 17 98 bc
       0.0779686 0.20264684 0.35864004 -0.018565837
0002e0 a3 a4 04 3c ff af 12 3e 9d 52 21 3c 3a 36 b1 3d
       0.008095893 0.1432495 0.009846357 0.08652921
0002f0 13 b9 d8 bd 93 07 80 be e7 4f cb 3e 41 e1 ba be
       -0.10582175 -0.2500578 0.39709398 -0.3649998
000300 82 d6 a6 bf f1 75 aa bf 78 1a 30 c0 cc 37 6b bc
       -1.3034213 -1.3317243 -2.7516155 -0.014356565
000310 b6 11 2c bb 47 ef 63 bd 5a 66 8c 3d bc 70 a1 3d
       -0.0026255674 -0.055648115 0.068554595 0.078828305
000320 fe cd 90 bc de a6 37 3d 5f d5 ec 3d b8 12 1d 3e
       -0.01767635 0.04483687 0.11564135 0.15339172
000330 f3 66 34 be be af 0b 3d ce eb 81 3e db 3b 81 3e
       -0.17617397 0.034103148 0.25375217 0.2524098
000340 42 e7 16 3c fe 7c 25 3e fe e3 0d be 04 89 57 3e
       0.00921041 0.16160962 -0.13856503 0.21048361
000350 25 ba 0d 3e b9 5e aa 3e 95 59 1d 3e 2a 52 5f be
       0.1384054 0.33275393 0.15366204 -0.21808687
000360 d2 77 42 3e 1e 2d 2e 3e e4 c9 c3 3e 04 75 95 3e
       0.1899102 0.17009398 0.38239968 0.29190838
000370 fc 10 04 3d 9f bc 4d bd 36 ef 41 bd 66 96 d7 be
       0.03224276 -0.05022871 -0.04734727 -0.42106932
000380 fe 71 8f be fe db 10 bf bd 63 d3 bc b4 21 4a bf
       -0.28016657 -0.5658568 -0.025804395 -0.78957677
000390 8c a5 ae be fa 14 1a bd 9a fa b0 be f4 2a 86 3e
       -0.34110677 -0.03761766 -0.34566194 0.26204646
0003a0 74 f3 5c bd a6 91 56 3e 03 af 0e bf 8b 57 b2 be
       -0.053943112 0.20953998 -0.55735797 -0.34832415
0003b0 e8 be 24 bf c0 cd 0e bf 5b 1e 0b bf e6 34 18 be
       -0.643538 -0.557827 -0.54343194 -0.14863929
0003c0 1f 00 f6 bd 0b e7 d9 bd 90 06 4e bf 50 06 d8 be
       -0.12011742 -0.10639771 -0.80478764 -0.42192316
0003d0 a0 5e 06 be 9a 05 4f be 44 c9 f8 3e 86 4e 48 bf
       -0.13122034 -0.2021698 0.48591053 -0.7824482
0003e0 19 c9 fd 3d 98 6b 1f be 00 46 47 bf b4 79 84 3d
       0.12391872 -0.15568388 -0.77841187 0.064685255
0003f0 de 79 79 bf 02 c1 2f bf 87 e7 00 3c 5a 0b 04 be
       -0.9745158 -0.6865388 0.0078677 -0.12894955

fc1.bias f4 [64]
000000 5e ce 22 bd c3 01 6c bd ba 1c 92 bc c9 c6 06 be
       -0.03974759 -0.057618868 -0.017835964 -0.13161768
000010 74 c7 84 3e 96 10 04 be 37 ec 8a be 09 97 c5 bc
       0.2593342 -0.12896952 -0.27133343 -0.02411987
000020 a5 71 82 3d 2a a1 3b be 2f aa 2d 3e 62 ce 9f 3e
       0.06369332 -0.18323198 0.16959451 0.31212145
000030 5f cb 08 be 5a 83 51 bd 3a 1c 9c be 65 09 cf bd
       -0.1335883 -0.051150657 -0.30490285 -0.10109214
000040 6b 5f b9 be 1f 5b b3 bc 18 df 0c be cd 99 b4 be
       -0.3620561 -0.021894036 -0.13756979 -0.3527359
000050 b0 85 e3 3c f7 bc 67 3d b6 19 42 bd d8 27 83 be
       0.027773708 0.056576695 -0.0473878 -0.25616336
000060 bc 0c 99 be 50 10 f3 3d 28 9b 3d be cb 7f a2 be
       -0.29892528 0.11868346 -0.18516219 -0.31738123
000070 ca cb a9 3d b2 8c 24 bd 67 55 0a 3d 2f 5d 1c bc
       0.08290823 -0.04017324 0.033772852 -0.009543701
000080 ca 71 8f bd 18 0f 44 be e9 33 d6 be 7a 5b 1e 3c
       -0.070041254 -0.19146383 -0.4183648 0.009665364
000090 51 6a b5 be 04 89 ae bd bd 2a da bd 11 39 9a be
       -0.35432675 -0.085222274 -0.10652683 -0.30121663
0000a0 cc 69 58 be e0 c8 7e 3e dd 6f a1 be 90 07 e4 3e
       -0.21134108 0.24881315 -0.31530657 0.4453702
0000b0 60 3b 18 be d1 06 eb bd 3c 46 c7 3d d3 72 88 be
       -0.148664 -0.114759095 0.09730193 -0.26650104
0000c0 19 13 98 be 5c 92 e9 3c c2 41 3c be b5 6a e3 bd
       -0.2970207 0.028512172 -0.1838446 -0.11104337
0000d0 ec 4a 8d 3e 98 2e c3 bd a2 75 92 be 18 58 7b be
       0.27596223 -0.095303714 -0.28605372 -0.24545324
0000e0 60 83 f6 3d 42 a1 82 be 76 2e 0b be 53 a2 4d bd
       0.120367765 -0.25513655 -0.13591942 -0.050203633
0000f0 50 5a 31 bd ee 09 20 bd 26 fe 99 3d ab 1a b0 bc
       -0.04329902 -0.03907197 0.07519178 -0.021497091

fc2.weight f4 [64, 64]
000000 0b 24 a4 bd 20 c3 6b 3e a8 b1 64 3e 78 11 df be
       -0.08014687 0.23023653 0.22333395 -0.43568015
000010 f9 5f 0e be 5c b4 cd be 76 7b d0 be a3 30 e6 3d
       -0.13903798 -0.40176666 -0.40719193 0.112397455
000020 99 bd b1 be 6e 31 ba bd fe c0 46 3e 04 0d ce be
       -0.34714964 -0.09091459 0.19409558 -0.40244305
000030 9b 1c d6 bc 2d 19 70 bc cb f0 37 bd 21 5d 2a 3e
       -0.026136687 -0.01465444 -0.044907372 0.16637088
000040 c5 38 82 3e 75 4f c9 3d 72 16 4e 3e a6 9d b8 3e
       0.25433937 0.09829608 0.2012575 0.36057776
000050 ab f5 40 be c4 41 0b 3e 79 2a 4d 3e 4d 7c db 3e
       -0.18843715 0.13599306 0.20035733 0.4286827
000060 9c 24 23 bf d1 20 f1 be e9 02 40 3f de d5 52 3e
       -0.63727736 -0.4709535 0.7500444 0.20589396
000070 8b 17 05 3f 3b 8c 6a 3e 1d e0 72 3e 60 fa 32 bd
       0.5198905 0.22905056 0.23718305 -0.043695807
000080 dc b8 96 3d b4 e1 24 3e 10 b2 82 3e 1b 51 b2 3d
       0.07359478 0.16101724 0.25526476 0.08706876
000090 86 24 99 bc 7d bd 9c 3e 59 6e 3f 3e 27 74 84 3d
       -0.018694174 0.30613318 0.18694438 0.06467467
0000a0 73 23 fa bd bc 4e a0 be 37 d5 1c 3e 47 9e cf bd
       -0.12213793 -0.3131007 0.1531571 -0.10137611
0000b0 f2 3b df 3e 63 67 52 be 15 56 bd be e8 5f 9e bd
       0.43600422 -0.20547251 -0.36979738 -0.077331364
0000c0 49 6b 51 be 0d 32 cc 3e 52 12 5a bc 58 81 0e 3e
       -0.20451082 0.39881936 -0.013310032 0.13916528
0000d0 fd b8 31 be 0e 53 34 3d e5 a0 2b 3e 62 25 e8 3c
       -0.17355724 0.04402452 0.16760595 0.028338138
0000e0 14 68 0f 3d 1c 2e 84 bd 6f ed 76 be da de ec be
       0.035011366 -0.06454107 -0.24114011 -0.46263772
0000f0 d7 c6 aa 3b a1 6c fe 3e ce cb 22 bf 3b c6 77 be
       0.005211692 0.49692252 -0.6359223 -0.24196713
000100 24 de 95 be 0d b8 97 3d f2 5a 03 bf 7a 30 fd 3d
       -0.29271042 0.07408152 -0.51310647 0.12362762
000110 5a 2b 29 3e d9 27 ba 3d d2 89 ad bd a5 5f d6 3d
       0.16520444 0.090896316 -0.08473553 0.104674615
000120 11 2b 0d be 09 1d 12 3d 6e 67 18 be 2e 42 bf 3e
       -0.1378596 0.03567222 -0.14883205 0.3735518
000130 87 a3 ea bd 46 58 0f 3e 62 0e 3a bd 57 cf 25 bc
       -0.114569716 0.13998517 -0.045423873 -0.010120234
000140 48 a2 79 3d 5d 89 43 3d fd 23 90 be 91 2e 83 be
       0.06094578 0.04773842 -0.28152457 -0.25621465
000150 c4 43 79 be 67 92 b4 be 51 fe 05 bd 84 da 01 bf
       -0.24342257 -0.35267946 -0.03271324 -0.50724053
000160 44 55 60 be 02 df d2 3d 5e c4 ee be 7b 0d b8 bd
       -0.21907526 0.102964416 -0.4663419 -0.08986946
000170 aa 3e 28 be 03 8d 84 bd 67 a4 c9 bc f0 78 61 be
       -0.16430154 -0.06472208 -0.024614526 -0.2201879
000180 85 dc 15 bd 19 90 39 3d c9 32 96 3e 97 1f da bd
       -0.036587257 0.045303438 0.2933562 -0.106505565
000190 ee 97 8a be 90 4a b6 bc 5d 48 6f 3d e2 dc 05 3e
       -0.27069038 -0.022252351 0.05841862 0.13072541
0001a0 85 d6 09 3e b2 bb 92 bd bd b5 e2 be 6c 0d e8 bc
       0.13460739 -0.07164706 -0.4427928 -0.028326713
0001b0 f9 2b 28 be b3 dd 9d be 14 20 b9 bd 16 85 7f be
       -0.16423024 -0.30833206 -0.090393215 -0.24953112
0001c0 cd 45 a6 bc 42 81 45 be 24 36 e3 3d c5 87 98 3d
       -0.020296955 -0.19287589 0.11094311 0.07447771
0001d0 23 2b af be 1f 39 be be 10 f4 c7 3c a0 11 07 bc
       -0.34212598 -0.37152955 0.02440837 -0.008243948
0001e0 89 e5 de be 13 b8 3f be 75 fc 04 3e 12 7d 77 3d
       -0.43534496 -0.18722562 0.1298693 0.06042201
0001f0 2f fa 2c be 26 86 8f be 48 95 cd bc 94 78 e6 bd
       -0.16892312 -0.28032035 -0.025095597 -0.11253467
000200 40 77 8e 3e 28 28 7e be ef ee 83 3e 90 36 dd bd
       0.27825356 -0.24820006 0.2576823 -0.108014226
000210 25 cc 42 3e 6b 60 09 3e cf 77 95 3c 8a 46 e7 be
       0.19023187 0.13415687 0.018245606 -0.45171005
000220 3c 4e d6 be 7c 40 2a be 5b 31 43 3d ce 7b db bd
       -0.41856563 -0.16626161 0.04765449 -0.10716973
000230 9d 9c b0 be 7b 4f fe 3e 87 4b 18 3d 65 38 01 be
       -0.34494486 0.49670014 0.037181403 -0.12619169
000240 d2 4c 89 be 85 33 c5 3e 31 76 25 bf 18 ee aa be
       -0.26816422 0.3851587 -0.6463347 -0.33384776
000250 07 7d 17 bd 1c f3 f4 bd be 62 b4 3e d5 69 95 3e
       -0.03698447 -0.11960432 0.35231584 0.29182306
000260 60 bd 88 be 62 bb 63 3e 51 0b bf 3e cd 92 f7 bd
       -0.26706982 0.2223945 0.3731332 -0.12088547
000270 f8 87 db be cf 63 70 3d ed c3 e7 3e 71 97 af bd
       -0.42877173 0.058688935 0.45266667 -0.08573807
000280 13 b1 a4 bd ac 33 a7 be af 2b a0 be 42 bb a6 3e
       -0.08041587 -0.3265661 -0.31283328 0.3256474
000290 5f eb 13 3e 90 0e ee 3e 7a 3d 8e 3e 95 7f 8f be
       0.14445256 0.46495485 0.27781278 -0.28027025
0002a0 c7 71 7d 3e 7f e4 aa 3c fb 87 26 3e d0 73 47 be
       0.24750434 0.020860909 0.1626281 -0.19477773
0002b0 8f db b7 be b2 1f 96 3e 8a cb 05 3f 75 21 49 bd
       -0.35909697 0.29321057 0.522637 -0.049104173
0002c0 b4 53 87 3e 28 90 6e 3e b7 53 64 be 4a da 9a 3e
       0.26431048 0.23297179 -0.2229756 0.30244666
0002d0 49 7e 19 3f d4 10 51 3d d0 f5 cb bc 68 92 6b 3e
       0.5995832 0.05104144 -0.024897486 0.23005068
0002e0 a5 ce cd 3d 70 e1 ab 3e a8 e6 a1 be cf 21 9e be
       0.1004918 0.33570433 -0.3162129 -0.3088517
0002f0 39 eb 83 3e 02 ab 48 3f c9 7c 94 3f d1 8f c1 be
       0.25765398 0.7838594 1.1600581 -0.37805036
000300 a5 42 01 3f 17 74 05 3e b0 a2 2f bd e8 71 ca be
       0.50492316 0.13032566 -0.04287976 -0.3954003
000310 a3 0c 51 be 14 1f 55 3e 9e 2b 07 3e e2 63 3b 3e
       -0.20414977 0.20812637 0.13200232 0.18299821
000320 6d ab 88 bd a0 a0 31 be 3f 7a 1a be ed a6 49 3d
       -0.06673322 -0.1734643 -0.15085696 0.04923146
000330 02 63 d0 3e ce e1 24 3f d6 71 08 3e e3 e2 b6 bd
       0.40700537 0.6440705 0.13324675 -0.08929994
000340 ae 5c 99 be 2b 04 5c 3e 79 72 8d bd a5 6b 6c bc
       -0.2995352 0.21485965 -0.069065996 -0.014429961
000350 99 78 1c bd 1d ec b1 be 81 d0 fe 3d de c9 00 3d
       -0.03820095 -0.34750453 0.12442113 0.031442516
000360 3c 23 82 3e 36 ba 80 be b8 b4 e1 3e df cf 1b bd
       0.25417507 -0.25142068 0.4408319 -0.03804004
000370 56 42 06 be aa 19 7f be 58 f9 75 3d 51 ef b4 bd
       -0.13111243 -0.24912134 0.060052246 -0.088347085
000380 09 61 db 3c 5c bf c0 bd 91 85 07 3e 7d 2b 4b 3e
       0.026779668 -0.09411499 0.13234545 0.19840808
000390 e8 00 4e be 57 68 c8 be 0d 97 95 bd d0 cc c6 3e
       -0.20117533 -0.39142105 -0.07304201 0.38828135
0003a0 09 b6 cb 3e 7f 18 65 be e8 42 0c bd d4 d5 41 be
       0.3978732 -0.22372626 -0.034243494 -0.18929225
0003b0 3d b3 a0 3e 35 bc 4a 3e f5 da a2 3e de 25 68 3e
       0.31386748 0.19798358 0.31807676 0.22670695
0003c0 53 54 e8 3d f7 a2 c9 3d d0 09 1a 3e 0b 6f a1 be
       0.113442086 0.09845536 0.15042806 -0.31530032
0003d0 30 80 ec bd 17 7a 20 3d d4 20 c7 3d 7a c7 26 bd
       -0.11547887 0.039178934 0.09723058 -0.04071758
0003e0 f9 93 9b 3d 17 d2 9a 3e 9c 0c 34 bf db 34 b8 bd
       0.07596583 0.3023841 -0.7033174 -0.089944564
0003f0 66 d9 b3 be 29 6f 39 bd ea b5 28 3f 59 03 21 be
       -0.351268 -0.045272026 0.6590258 -0.15723933

fc2.bias f4 [64]
000000 00 98 28 3e 35 4a 29 3f e3 5f 08 3e 22 fa 96 3d
       0.16464233 0.66128856 0.13317828 0.07371928
000010 af 2b c7 3e 67 d4 39 be 3a 3b bb bd b6 ca 92 be
       0.38900515 -0.18147431 -0.09142156 -0.2867028
000020 69 d2 fa 3e 82 02 85 3f 13 9b a1 be d4 60 a9 3e
       0.48988655 1.039139 -0.31563625 0.33081686
000030 b9 2f 4b 3f 86 e9 44 be 42 05 bc bd 29 e1 a1 3d
       0.79369694 -0.19229707 -0.0918069 0.07904274
000040 e1 c6 82 3d 56 b6 18 3d e5 20 b7 be c6 df 17 3e
       0.063855894 0.037283264 -0.35767284 0.14831457
000050 63 a7 88 3e 0e cc 31 3f ea 31 90 be 3f be 20 be
       0.26690206 0.6945199 -0.2816308 -0.15697573
000060 51 12 f4 bd 16 e6 b5 bd 02 5d 4a be a4 9f d9 3c
       -0.11917556 -0.08881776 -0.19762042 0.02656538
000070 43 74 2c 3c 42 e2 80 3e 17 19 43 bd 6a 5a 2d 3f
       0.010525766 0.2517262 -0.04763135 0.67716086
000080 fa c8 8d 3d 80 ce 6a 3f 21 4e 29 3e b9 62 f4 bd
       0.06923099 0.91721344 0.1653371 -0.11932892
000090 e7 b2 10 bd 4f 93 3f be 34 80 50 3f da b6 9c 3e
       -0.035326865 -0.18708538 0.8144562 0.30608255
0000a0 b0 24 46 be 25 22 8f 3f 44 cb f1 3e 0d 5f 24 be
       -0.19349933 1.1182295 0.47225392 -0.16051884
0000b0 05 bb d3 3e 57 a4 ff bc ff 26 5e 3f f8 9d 56 bd
       0.41353622 -0.031206293 0.86778253 -0.052396744
0000c0 06 fd 14 bd 42 d5 da be a4 54 3f bc 13 33 33 3f
       -0.036374114 -0.42740828 -0.011677895 0.6999981
0000d0 95 19 29 be 0a e7 22 3d 86 08 c2 3c 46 b3 ed 3e
       -0.16513665 0.039771117 0.023685705 0.46425837
0000e0 b8 ef b7 be a2 7b 4b bd ee e0 91 be bd 53 2d be
       -0.35925078 -0.049678452 -0.2849192 -0.16926475
0000f0 32 2c 0d be 99 b8 3f 3f 6d 0b 41 bc 07 1c 84 3e
       -0.1378639 0.7489105 -0.011782509 0.25802633

fc3.weight f4 [4, 64]
000000 e1 2a a5 3d 80 6f 88 3e 40 a1 d1 3d 86 d8 b4 3e
       0.08064819 0.26647568 0.10235834 0.35321444
000010 ad 29 4c 3e 3a a6 90 3e a9 6e 40 3e 3b 4d 08 be
       0.19937773 0.2825182 0.18792213 -0.13310711
000020 6a dc 44 3d 8e f9 96 3e ae 57 ce be f5 70 5c 3e
       0.048061766 0.2948727 -0.4030127 0.21527465
000030 0b 64 73 3e 9e d7 c8 3d 10 07 f4 bc 59 af 36 3e
       0.23768632 0.09806751 -0.029788524 0.17840327
000040 41 f1 1a 3f 73 51 fe 3d 99 db 28 be bd 85 8c be
       0.60524374 0.12417879 -0.1649002 -0.27445784
000050 32 1c ee 3d f7 71 a5 3e 49 2a ad be 89 b5 86 3c
       0.116264716 0.3231351 -0.33821324 0.016443985
000060 ce 1e 8a be 9b ab 4a bb 09 f7 28 be 03 fc c1 3e
       -0.26976627 -0.0030925039 -0.16500486 0.37887582
000070 a3 13 1f 3f 44 36 04 3e d3 8d fe 3d 9e 42 3c 3e
       0.6213934 0.12911326 0.124293946 0.18384787
000080 6c 61 0b 3f 40 4f 8c 3e 4a 64 db bd 57 3c bc 3e
       0.5444553 0.27404213 -0.10712488 0.36764786
000090 49 61 e5 3d 7b d6 05 be 1b 0c 64 3e 00 6e 8e 3b
       0.11200196 -0.13070099 0.22270243 0.004346609
0000a0 aa d0 b0 be 12 62 9a 3e cd c3 6c 3e e8 34 33 be
       -0.34534198 0.30152947 0.23121567 -0.17500651
0000b0 2f 15 15 3e 90 f7 66 be bd fb 8f 3e c6 ec a8 3e
       0.14558862 -0.22555375 0.2812175 0.32993144
0000c0 02 61 d1 3d c7 22 65 3e 9e 32 80 3e e7 77 25 3e
       0.10223581 0.22376548 0.25038618 0.1615902
0000d0 a7 87 94 3e e6 04 21 3e 16 ff 0b be 45 8a 93 3d
       0.29009745 0.15724525 -0.13671526 0.07204107
0000e0 3f 8b b8 bd 97 e9 0b 3e ad 00 9b be d4 6c 9c bc
       -0.09010934 0.13663326 -0.30273953 -0.019094862
0000f0 77 0b 8a bf 49 ba 58 3e e1 f5 e3 bd eb 2d 9b bd
       -1.0784749 0.21164812 -0.11130882 -0.075771175
000100 52 b6 4a 3d 27 b2 3f 3e f7 1e 2a 3e c1 13 ba 3e
       0.04949028 0.18720303 0.16613375 0.36343196
000110 5d ba c5 3d ff 07 9b 3e 48 37 24 3e b7 1f 69 37
       0.096546866 0.30279538 0.16036713 1.3895266e-05
000120 6c 37 5b 3e b6 13 94 3e dc 49 81 bd 85 67 0c 3e
       0.2140786 0.28921288 -0.06312916 0.13711365
000130 67 08 30 3e 22 a2 72 3e 60 de a5 bc d3 ba ab 3d
       0.17190705 0.23694661 -0.020247638 0.08385243
000140 8d 9f d7 3e 9c ec de 3b b1 8e 0c be 56 a6 a1 bd
       0.42113915 0.0068031084 -0.13726307 -0.07893054
000150 50 89 28 3c 01 ef 8c 3e 76 e6 2f be 13 6d 89 3e
       0.010286644 0.27526096 -0.17177758 0.2684103
000160 09 4a 20 bf 12 7a d9 3d c3 c5 9a 3e 34 ad f9 3e
       -0.6261297 0.10618986 0.30229005 0.48764956
000170 fa 70 1d 3f 33 81 85 3d c3 8e ca bc 12 4e 57 3e
       0.61500514 0.065187834 -0.024726277 0.21025875
000180 a4 21 df 3e 84 2e 9b 3e 8f dd cf 3d d5 fb 13 3f
       0.43580353 0.30308926 0.10149681 0.5780614
000190 c8 0b e6 bc e5 d5 c7 3d 9e be b7 3e a0 00 57 3e
       -0.02808179 0.09757594 0.35887617 0.20996332
0001a0 bd f8 87 3e 4d 54 a0 3e 71 80 44 3e 8b 24 37 bd
       0.2655696 0.31314316 0.19189622 -0.044712584
0001b0 84 1e 04 3e 56 0f ce bd 99 dd 8e 3e 77 96 de 3e
       0.12902266 -0.10061519 0.2790344 0.4347417
0001c0 b7 4e 25 3e 70 eb 37 3d e9 89 d2 3e 28 10 87 3e
       0.16143309 0.044902265 0.41120842 0.26379514
0001d0 6d dd c7 3e ad 19 2e 3e e6 b7 06 3e 59 27 4f 3e
       0.39036122 0.17001982 0.13156089 0.20229854
0001e0 f9 3f 3a be 14 86 ba bd 67 5e 78 be 05 ca c0 bc
       -0.18188466 -0.091076046 -0.24254762 -0.02353383
0001f0 fb b3 a5 3c 15 32 61 3e 0d 0f 6b bc 32 50 d9 3d
       0.020227423 0.21991761 -0.01434685 0.10610999
000200 0b de 2f 3e a0 06 5b 3e a7 f2 a2 3d 90 f7 cc 3e
       0.17174546 0.21389246 0.079564385 0.40032625
000210 74 b2 a3 3e a3 a1 a1 3e 84 bb b4 be b3 60 f1 3d
       0.31972086 0.31568632 -0.35299313 0.11786022
000220 b7 73 68 3e d5 c3 98 3e 89 5c 14 be 7d 29 4e 3d
       0.22700392 0.29836908 -0.14488424 0.050332535
000230 20 83 6e 3e f7 df c5 bc 66 5c 98 bd 0a 46 39 3e
       0.23292208 -0.024154646 -0.074394986 0.18093124
000240 09 25 4c 3e 26 0c 51 3e 69 05 56 be 7b 76 a5 bd
       0.19936003 0.2041479 -0.20900501 -0.08079239
000250 b8 7c 97 3c c8 4c a4 3e 32 c9 91 bd 53 02 10 3e
       0.018492088 0.3208983 -0.07118453 0.14063387
000260 08 d7 b0 3d 9d 78 a0 3c bb f5 2e 3e 25 8f 78 be
       0.08634764 0.019588763 0.17085926 -0.24273355
000270 09 9d 26 3f 07 7c c2 3d 00 06 3f 3d df c5 05 3e
       0.65083367 0.094963126 0.04663658 0.13063763
000280 dc 78 77 3e 48 6d 87 3e 6f 59 20 3e 37 1f 2b 3f
       0.24167198 0.26450562 0.15659116 0.66844505
000290 72 65 ab bd b2 6e b0 bc 4d e3 a8 3e 04 17 8a 3b
       -0.083689585 -0.021537159 0.32985917 0.0042141695
0002a0 e3 a1 0f 3e 38 6b a7 3e 84 5d 1a 3e 9a 42 c5 bd
       0.14026599 0.3269899 0.15074736 -0.09631844
0002b0 5b 2a 69 3d 1f 8c 14 be 28 8a 94 3e 9b c6 30 3e
       0.05692516 -0.14506577 0.29011655 0.17263262
0002c0 d3 a7 2d 3e 7d 6d 19 3e a5 e9 85 3e ce e1 94 3e
       0.16958551 0.14983173 0.2615482 0.29078525
0002d0 5b 69 5f bd d5 ff 05 3e ac 0d 10 3e e3 89 3b 3e
       -0.054543834 0.13085873 0.14067715 0.18314318
0002e0 53 f4 3c be 1c d6 d9 3d 74 69 1c be 7f c2 a9 be
       -0.18452577 0.10636541 -0.15274602 -0.331562
0002f0 82 ba 4f be 2b 13 ac 3e f2 e0 44 be 5d bd 0f 3e
       -0.20285991 0.33608374 -0.19226435 0.1403708
000300 53 df 88 3e 85 08 ff 3d 81 0b 8e 3c d0 64 79 3e
       0.26732883 0.12452797 0.01733947 0.24354863
000310 4b cb 75 3e 7c 18 8c 3e 51 cf 0c bf 00 61 a9 3d
       0.24003331 0.2736243 -0.5500384 0.082704544
000320 ca a1 17 3e 0d bf 9b 3e 4b 42 62 bd 9c 2a 27 3d
       0.14807811 0.30419198 -0.055239003 0.04081212
000330 94 00 8a 3e ba e5 dc 3d 5c 46 36 3d ee 3e 2a 3d
       0.26953566 0.10786004 0.044500694 0.04156392
000340 02 4c b5 3e 7a 07 10 3e 48 fe 10 be 6e 29 e3 3d
       0.35409552 0.14065352 -0.141595 0.110918865
000350 8f 76 7f 3c 8c 36 77 3e a5 fc 90 3c 95 5c 19 3d
       0.015592231 0.24141902 0.017698595 0.03744181
000360 09 e3 d1 3d e6 9d d6 be dc e9 27 3e 4b f3 09 3f
       0.10248382 -0.41917342 0.16397804 0.5388686
000370 eb 78 ca 3e 99 8e 1f 3e aa 73 82 bd 5c 7e 6a 3e
       0.39545378 0.1558174 -0.063697174 0.22899765
000380 85 d8 70 3e b8 77 a5 3e 2c 12 7d 3e f1 2a 3f be
       0.23520096 0.323179 0.24713963 -0.18668725
000390 1b 6b 57 be e2 1d 98 be 7f 54 9d 3e b9 09 1a 3e
       -0.21036951 -0.297103 0.30728528 0.15042771
0003a0 7a 5a 4e bf 61 11 ba 3e 55 c0 67 3e 1a b4 f2 be
       -0.80606806 0.36341384 0.22631963 -0.47403032
0003b0 71 4e 55 3e 0a 9a ac bc ac cc 60 3e c3 05 a1 3e
       0.20830704 -0.021069545 0.21953076 0.31449708
0003c0 2c e1 83 3e 71 52 90 bd b6 8a 5c 3e fe 3b 64 3e
       0.2575773 -0.070469745 0.21537289 0.2228851
0003d0 52 97 28 be e0 dc 8a 3e 48 04 e8 3d fe 86 77 3e
       -0.16463974 0.2712164 0.113289416 0.24172589
0003e0 58 04 8f 3d 26 0f d0 be 35 78 aa be 29 87 9d be
       0.069832504 -0.40636557 -0.33294836 -0.30767182
0003f0 d0 19 9e be 19 d1 39 3e 3a 99 93 3d 66 b4 0a 3e
       -0.30879068 0.1814617 0.0720696 0.13545379

fc3.bias f4 [4]
000000 81 34 60 3f a4 9b 1d 3f 2e 24 12 3f ab 2a 1d 3f
       0.87580115 0.61565614 0.57086456 0.6139323
